action/tile.model (torch_old, 980287 bytes, 10 tensors)

conv1.weight f4 [10, 3, 5, 5]
00000000: 7aff 5abe e1fe 1dbe 9828 913d aacc 0bbd
00000010: 110d b9be 3699 1b3f 04da fa3e 0c4b 333f
00000020: 59f5 223f ea9e 223e 0cac 083e 0c73 dcbd
00000030: 421e 823e cc1d ca3d 05fe 21be 1204 39bf
00000040: cc8b 1abf 42d8 e7bd 65a6 9bbe 1ed1 43bf
00000050: 6e59 0cbf ba40 32be a993 693e 24f8 4f3e
00000060: ae90 1dbf ec66 daba 44ca d83d 182c 3ebe
00000070: e23b e1be 01c9 a9be 5672 913e 2111 ac3e
00000080: 5c34 893e d2df 803e 1e1d 073e ec71 943e
00000090: d50f 0c3e 4593 323e facd 0d3e e551 3bbd
000000a0: d507 bbbe 277b b7be f02a 75be ec6e 8abe
000000b0: fe87 f8be ef60 dc3c e2af 773e 32c3 8b3e
000000c0: a878 d93e 6869 753e cadc 4f3d 9a9d 55bd
000000d0: 526a 05bd dd6f cfbe c414 e6be b7d8 db3e
000000e0: 220b bc3e d6c2 de3e c306 a13e 6a4d b23d
000000f0: 1696 323e 48f2 9e3d 572d 6c3e 2e7f 683e
00000100: 4717 fabc 062e 30bf 2a71 19bf c946 4bbe
00000110: 069b 97be 7428 3abf 9670 0bbe ebe0 1e3e
00000120: 4f65 e73e a1f6 013f 470a 5fbd 8351 1ebf
00000130: 7a67 1d3d 4ce8 c33e 8c58 5ebe 6369 ecbe
00000140: 6763 7abf d647 a3bf a80b 21be 484d 8a3e
00000150: 607e c0be 9849 03be 96d4 aabf 7dc5 a5bf
00000160: b9c9 98bd dda2 81be 8545 933e 8b72 cfbe
00000170: 5192 8bbf 95b0 54bf c02d c5be 391c 683e
00000180: b322 a3be 1271 0fbe 98de febe daa5 41bf
00000190: fa64 e0bc d718 063f 42c4 543f 541d 903e
000001a0: 4af6 b5bd 6fd3 53be 6c5a a3be bd69 233f
000001b0: 554e 653f 03a1 933e 5056 1a3f 0cc4 acbe
000001c0: 8698 9abe 4fc3 193f 55a7 8d3e 31ff 453f
000001d0: 8486 9f3e df75 46be e16c d23c 8c87 923e
000001e0: 4410 0b3f ebac 153f 541c a43e fb98 4f3d
000001f0: 0dba 48bd fb93 4d3c b087 c63e 01de 063f
00000200: 8f6b f53c 4f7a 8abc 2986 d1be 4fcc ffbe
00000210: 3f13 7e3e bb52 203f 1d56 3ebe 570b c63e
00000220: 004a 03bf 03e8 35bf 4eef 733e ddad 1b3d
00000230: 21ec 3d3f dbb8 223e 9f5b 81be 135b bbbe
00000240: cc6e 1e3e 9b80 0e3f 09d3 c63e 39e4 8b3e
00000250: 4bf3 1bbe c40e ccbe 2336 b33d a41c 0ebd
00000260: e1ad 39bf 9a3c f6be b09d e43d e68e 08be
00000270: 1c0d 56bd 8cbe 08bf 9a5f 02bf 2847 0a3d
00000280: d423 ae3e f3c8 c03e 8eef 943a adff 6a3e
00000290: d42e 253e b427 523e 51dd 053e 121b 8d3d
000002a0: b5d2 7f3e f486 583e 683f 47bd 806c 6ab8
000002b0: 62c3 b0bd 7835 dabd fa2b 943c 1c10 aa3e
000002c0: e307 053d 2baf 51bf a956 30bf 4ed5 993e
000002d0: 6d60 9cbd 53b3 353e e1cd 90be be0f 27bf
000002e0: 3cc5 973d e059 9f3e 3d3c d33e 71d1 4c3e
000002f0: 3564 cfbc 1088 ec3d f20f 543e bd62 3a3e
00000300: b3e3 d13c be15 a63d 9fc7 8e3d 034a e4bd
00000310: 37fc 0d3e 0a6c 43bd f004 70be 9859 4ebd
00000320: d70a b53e 80dd 073e 248f 6bbf aab2 4ebf
00000330: 9f86 983e 90e8 fc3d 7333 873e b916 07bf
00000340: cb62 4fbf 2afb 40bd 6853 193f 279b fc3e
00000350: 8dc7 393e 5827 123e a971 1b3e fd7a 0d3e
00000360: a4d1 993e 3818 913e d61b 983e 9006 3a3e
00000370: 75d3 2fbe d5e7 9abd 2ce3 64bd 346c 45be
00000380: 9265 2dbe ba7a b1be d3a9 713d ba36 033e
00000390: 3de6 123e 2886 893d 8c50 c7bc 0189 f63d
000003a0: 1ed7 833d 1f8a ccbc 0ae0 033e e0fb 1f3e
000003b0: 4585 2e3e ae38 8a3d 8be8 99bc fe31 1cbd
000003c0: 7e9a 373e d4e8 22bc 4e59 31be 1377 66be
000003d0: 6fd8 8dbe 4976 91be d5bd 83be 18a9 b9be
000003e0: 373e c2be fba3 22bf f96d b9be 0690 42be
000003f0: de92 9b3c 00b0 1dbe 90f1 a5be 2819 24be
-0.21386519 -0.1542926 0.07087821 -0.03413073 -0.3614278 0.60780656 0.48994458 0.7003639
0.6365562 0.15880933 0.1334688 -0.10764131 0.2541371 0.098689646 -0.15819557 -0.72271836
-0.60369563 -0.11320545 -0.30400386 -0.7649096 -0.5482396 -0.17407504 0.22810234 0.20309502
-0.6154889 -0.0016662753 0.10585454 -0.18571508 -0.43991 -0.33161166 0.28407544 0.33606818
0.2679776 0.2517076 0.13194701 0.28993165 0.13677914 0.17438991 0.13848105 -0.045732398
-0.36529413 -0.35836145 -0.2394216 -0.27037752 -0.48541254 0.02690169 0.24188188 0.2729736
0.42474866 0.2396599 0.05074767 -0.052152254 -0.032572098 -0.40515032 -0.44937718 0.42938778
0.36727244 0.43508023 0.3145047 0.08706172 0.17440066 0.07761055 0.23064171 0.22704765
-0.030528678 -0.68820226 -0.599383 -0.19851221 -0.2961046 -0.72717977 -0.13617167 0.15515487
0.4519448 0.5076695 -0.05445316 -0.61843127 0.03842876 0.38263166 -0.21713465 -0.46174154
-0.97807926 -1.2756298 -0.15727103 0.27012086 -0.37596416 -0.12821043 -1.3346126 -1.2950894
-0.074603505 -0.25319567 0.28763977 -0.40517077 -1.0904027 -0.8308194 -0.38511467 0.22667016
-0.3186241 -0.14007977 -0.497792 -0.75643694 -0.0273919 0.5238165 0.83111966 0.28147376
-0.088848665 -0.20686124 -0.31904924 0.6383322 0.8957265 0.2883378 0.6028795 -0.33743322
-0.3019449 0.6006364 0.27666727 0.77342516 0.31157315 -0.19380902 0.025686683 0.2861904
0.54321694 0.58466977 0.32052863 0.050683003 -0.049005557 0.012547488 0.38775396 0.526825
0.029958514 -0.016904024 -0.4092267 -0.49960563 0.2481203 0.62626237 -0.18587537 0.38680527
-0.5128479 -0.71057147 0.23821756 0.038007606 0.7418843 0.1589083 -0.25265214 -0.36592922
0.15471953 0.55664986 0.38832882 0.27322558 -0.15229528 -0.39855015 0.0875056 -0.034695283
-0.72530943 -0.4809311 0.11162889 -0.13335761 -0.052258596 -0.5341575 -0.50927126 0.033759266
0.3401171 0.37653312 0.0011362897 0.22949095 0.16131145 0.20522958 0.13072707 0.06889929
0.24982722 0.2114523 -0.048644453 -5.5890996e-05 -0.08631016 -0.106547296 0.018087376 0.33215415
0.032478224 -0.8190791 -0.6888223 0.3004555 -0.07635579 0.17744188 -0.28282073 -0.65258396
0.07410666 0.31123257 0.41256896 0.2000177 -0.025316337 0.11549389 0.20709208 0.18201728
0.02562127 0.08109616 0.069716685 -0.11146929 0.13865744 -0.047710456 -0.23439384 -0.050378412
0.35359833 0.1326809 -0.9201529 -0.8074137 0.29790208 0.12349045 0.2640644 -0.5276905
-0.8101012 -0.04711453 0.5989289 0.49337122 0.18142529 0.14272821 0.15180077 0.13816448
0.30042756 0.2833879 0.29708737 0.18166566 -0.17170508 -0.0756375 -0.05588071 -0.19279557
-0.16933277 -0.34663945 0.058999848 0.12813845 0.14345641 0.067150414 -0.0243304 0.1203785
0.06437515 -0.024968205 0.12878433 0.15623426 0.17043026 0.06749092 -0.018787643 -0.038133614
0.17930028 -0.009943206 -0.17319223 -0.2250636 -0.27704188 -0.28410557 -0.25730768 -0.3626182
-0.3793809 -0.63531464 -0.36216715 -0.19000253 0.01899093 -0.1539917 -0.3241086 -0.16025221

conv1.bias f4 [10]
00000000: d512 e0bf d990 90bf cf43 a8bf ff72 83be
00000010: 4794 04c0 5e9b 07c0 9861 c7bf 436d 48bf
00000020: cf68 03c0 72ac e0bf
-1.7505747 -1.1294204 -1.3145694 -0.25673673 -2.0715501 -2.1188579 -1.5576658 -0.7829172
-2.053272 -1.7552626

conv2.weight f4 [26, 10, 5, 5]
00000000: 041f 3c3f a962 f93e 20ab 88bd 112d a8be
00000010: 01bd e33e b048 37bc 3988 12bd 84c3 b3be
00000020: f970 37bf da85 703e e5e4 c1be 6d17 08bf
00000030: 688c 00bf 37a3 53be 90cb 78bd 7403 98be
00000040: 88a3 abbf 39d3 2cbf 50da 56bd c39d 8a3e
00000050: 7526 67be 78ef 44bf 6fd9 14bf fe10 2bbf
00000060: 3eed 02bf e0d0 1e3f 6c84 ed3e fb77 91bd
00000070: 4ec1 a1bd f7ec d13e c154 4a3c 77e4 b13e
00000080: 3147 923e 9606 58bc 725f ff3c d0cd f83d
00000090: d360 7b3e e736 013e 9bb1 973b ac6b c93e
000000a0: 5d87 7bbd 14ef 8a3e 3ddd 86be ee94 83be
000000b0: ad68 413f c0c0 c9be 93c3 b73d 303c cbbe
000000c0: 10be 5cbf 48fa eebc 810d b23e f135 c03e
000000d0: a3c8 c1bc 1941 5ebf d918 10bf f3ad 0a3f
000000e0: b440 8dbd c181 45bf a2cd b3bf 5c94 90bf
000000f0: 00cd 323f c604 d73e 0552 a53e 03c2 d7be
00000100: a075 0cbf 0dad b43e 3444 503f 19eb 443f
00000110: 21d1 3c3e 17ad 99bc 7917 2bbe 4c03 f33e
00000120: 469a 1c3e cec0 053e 2c76 533e 9094 693f
00000130: c6b5 b23e 654a a5be 7702 81bf 6e96 c6bf
00000140: 58d1 e73e 10e4 a43d ce0c 41bf f5f0 f4bf
00000150: 3d15 eebf f1d1 103f 3041 613e f508 1abf
00000160: 041b 98bf 5aea 5cbf 980e 4d3f 4639 013f
00000170: cd28 bd3d 67a7 babc 9b73 8bbc 1724 4a3f
00000180: 9e34 013f 4b0f 1e3e 9634 2c3e eb5b 9fbd
00000190: afd4 ac3e 2e75 7dbf fe44 b9bf d322 92bf
000001a0: 6b11 9d3d 961b b6be 9928 c3be 7a24 c3be
000001b0: a082 a1bf b4b1 2c3e 07d2 60bf 8e8a a0be
000001c0: 2e27 bcbe 4db8 66bf 0feb 2abf 62ae 3ebf
000001d0: 5fba 923d 615c 4e3e 1e50 813d 7947 aa3e
000001e0: fae8 c5be 2608 babe 8eaa d9bd ddf3 47be
000001f0: 9d72 9a3e 3632 6fbf a7a9 a7be 6615 ccbd
00000200: 8843 413e 7f58 073f 6383 93be 2f1b 60be
00000210: 8974 583e f642 363f 1579 413f 41b8 71bf
00000220: 1213 a8be 3162 9abe fdd0 fabd da4d 053e
00000230: cbc7 ebbe 9c7e 183f b87d 873d 74af 35bf
00000240: 89e5 73be c744 1abf 759d 96be 6f67 1b3e
00000250: b4e1 91be 5b0c 4fbf e799 e13e c3c3 ea3e
00000260: 4340 b73e 8b38 d3be a151 433e 0629 e33e
00000270: 6e5c 153e d423 3fbf 5c77 c4be 993e 35be
00000280: b324 503f af18 8e3e 928e 073e a39a 613c
00000290: d509 2dbd e44d 083f 059c 003f bb67 653f
000002a0: fff5 0f3f dd0d df3e bd10 27bf f5a9 f23e
000002b0: 455c 433f 467b 0d3f 811d 393d 47f4 363f
000002c0: 51f1 073f 55fa 6a3d 586a 83be 27aa 11be
000002d0: 0050 273f ad65 b83e 14a6 053c 7daf 98be
000002e0: 1bc3 e8be 950a a93e 6a76 02bd dde0 afbe
000002f0: a519 7fbf 6480 a5bf d041 01be 7f8d 94bc
00000300: 7988 97bd 75e5 0abf 8aea e9be 5242 963e
00000310: 5e50 073f 880f 033f ea01 72bd eb3f cd3d
00000320: 4f4e 19bf d707 54bf 1104 77bf 208f 05bf
00000330: 79c2 ad3e 94be a4be dae0 81bf cf97 5ebf
00000340: bee3 86bf 32ea 89bd a2e2 e5be cac3 63bf
00000350: 9279 42bf 1829 13bf 8515 d33c d5bb 20bf
00000360: 7421 11bf a2cc 773c 096a 88be 63bb f13b
00000370: cc6e 033f f210 14bf 512c e33e 23d4 b63e
00000380: 436a 5b3e 1b68 c83d 8d25 f8be 8506 ecbe
00000390: 415f 8fbd f779 1d3e e294 a0be e751 bdbf
000003a0: add2 0bbf 2803 12be 9b43 65be 9764 d6bd
000003b0: 048d e5bf 2587 5cbf 14ca 8dbf c5df 39bf
000003c0: 8adb a9be 013a aebf 91ef 9ebf 6bf4 57be
000003d0: ab60 9c3e a770 5fbe b663 4ebf 81a5 0ebf
000003e0: cee7 68be 360f 8c3e 5c31 183e 92b0 53be
000003f0: 8b52 88be 7ad8 b1be 9e89 d03d 5a17 ef3e
0.73484826 0.48708084 -0.066732645 -0.32846883 0.44480136 -0.011186764 -0.035774443 -0.35110104
-0.7165676 0.2348856 -0.37869945 -0.53160745 -0.5021424 -0.2066773 -0.060741007 -0.29690135
-1.3409281 -0.675098 -0.052454293 0.27073488 -0.22573264 -0.769279 -0.5814428 -0.66822803
-0.5114325 0.6203747 0.46390092 -0.071029626 -0.07898198 0.41001102 0.0123493085 0.34744617
0.2856994 -0.013185164 0.031173442 0.121486306 0.24548654 0.126186 0.0046293265 0.3933996
-0.06140839 0.27135527 -0.26340666 -0.25699562 0.7555035 -0.3940487 0.0897285 -0.39694357
-0.8622751 -0.029172078 0.34775928 0.37541154 -0.023655241 -0.8681808 -0.56287915 0.54171675
-0.06897107 -0.77151114 -1.4047129 -1.1295276 0.69844055 0.4199583 0.32289138 -0.42140207
-0.5486698 0.35288277 0.8135407 0.7692123 0.18439151 -0.018759293 -0.16708173 0.47463453
0.15293226 0.1306183 0.20650548 0.91242313 0.34904307 -0.3228332 -1.0078877 -1.5514657
0.45276904 0.08051312 -0.75410163 -1.9136034 -1.8600231 0.56570345 0.21997523 -0.6016992
-1.1883245 -0.8629509 0.80100393 0.5047802 0.09236298 -0.022784902 -0.017022898 0.7896132
0.5047091 0.15435521 0.16816935 -0.07781204 0.33756015 -0.99006927 -1.447418 -1.1416878
0.07669338 -0.3556792 -0.3811691 -0.38113767 -1.2617989 0.16864663 -0.87820476 -0.3135571
-0.36748642 -0.9012497 -0.6676492 -0.7448484 0.07164454 0.20152427 0.06314109 0.33257654
-0.3865431 -0.36334342 -0.10628234 -0.1952662 0.30165568 -0.9343599 -0.32746622 -0.09965019
0.18873417 0.5286941 -0.28811178 -0.2188537 0.21138205 0.71195924 0.7557538 -0.94421774
-0.3282705 -0.3015304 -0.122468926 0.1301798 -0.46050867 0.5956819 0.06615776 -0.70970845
-0.2381803 -0.60261196 -0.29417005 0.15176176 -0.2849251 -0.8087823 0.4406273 0.4585248
0.35791215 -0.41254076 0.19074108 0.44367236 0.1458604 -0.74664044 -0.38372314 -0.1769966
0.81306 0.27753207 0.1323798 0.013769778 -0.042245705 0.5324385 0.50238067 0.89611405
0.56234735 0.43565264 -0.65259916 0.47395292 0.7631267 0.55266225 0.045194153 0.7146649
0.53102595 0.05736764 -0.2566707 -0.14225064 0.65356445 0.36015072 0.008157272 -0.29821387
-0.45461354 0.33015886 -0.03185121 -0.34351245 -0.99648505 -1.2929807 -0.12622762 -0.018133877
-0.07399077 -0.54256374 -0.45686752 0.29347473 0.52857006 0.51195574 -0.059083857 0.10021957
-0.59885114 -0.8282446 -0.9649058 -0.52171516 0.33937433 -0.3217665 -1.0146744 -0.8695039
-1.0538251 -0.06734122 -0.4489947 -0.88970625 -0.7596675 -0.5748458 0.025767097 -0.6278661
-0.5669167 0.015124472 -0.26643398 0.0073770746 0.5134094 -0.57838356 0.44369748 0.35708722
0.21427254 0.097854815 -0.4846615 -0.46098724 -0.0700059 0.15378557 -0.3136359 -1.479062
-0.5461834 -0.14259017 -0.2238907 -0.10468405 -1.793366 -0.86143714 -1.1077294 -0.7260707
-0.33175308 -1.3611451 -1.241686 -0.21089332 0.30542502 -0.21820317 -0.80620897 -0.5572129
-0.22744676 0.27355355 0.14862579 -0.20672825 -0.26625475 -0.3473547 0.101824984 0.46697503

conv2.bias f4 [26]
00000000: 741e 923e 8c38 4ec0 ab9e 83bf 872f 9d3f
00000010: 66fa 903f 7643 babf 0a13 b73d f03d b4bf
00000020: eaef 1940 6d69 04c0 65d6 693f 010a b3be
00000030: f861 963f 3467 14bf ae7b 53bf 8b70 e3bf
00000040: cfd1 4a3e 6ecc 5c3e 3127 adbf da52 50bf
00000050: 5b0c e8bf af3f 1c3f 8e4c 31bd 871a 293f
00000060: 1ff7 1bbf e9eb 063f
0.2853886 -3.2222013 -1.0282797 1.2280129 1.1326416 -1.4551837 0.08939178 -1.4081402
2.4052682 -2.0689347 0.91342765 -0.3496857 1.1748648 -0.57969975 -0.82610595 -1.776872
0.19806598 0.21562359 -1.3527585 -0.8137642 -1.812877 0.61034673 -0.0432859 0.660561
-0.6092395 0.5270372

fc1.weight f4 [300, 650]
00000000: e406 d03e 3a8b 12bf 1217 14bf aada 123f
00000010: 926e 2b3f 608e f23d 8b2e 0abe 8135 71bf
00000020: 5fc5 b1be 0bb2 0dbe 3339 d3bb bc6f 78be
00000030: 22dc f4be 1009 f1be ba2d dcbc 8558 883d
00000040: b0c3 db3e b8e9 c5bc 4c03 8f3e 6d49 813f
00000050: 520e 1c3f d319 4d3d e846 a8be 1083 263f
00000060: b630 2e3f 087d e83d f07a f63e dedb 833e
00000070: f47d 073f ea23 5d3d d64d b13e 8558 013f
00000080: 7260 033f 529e f23e bc8f 95be 7e60 7ebe
00000090: 861e 303f 6440 493c 599f b83d 4247 b8be
000000a0: 7ae2 47bf 8b9c 0cbd 6819 933e a0a4 543e
000000b0: c078 7ebe 3c42 883c 6eb2 ff3c 9c07 da3d
000000c0: a541 06be bb7c 0abe 61ef 0c3e 8998 4f3e
000000d0: 5df1 95be 0f70 48bf e392 44be c899 32bf
000000e0: eb13 92be 1459 c53e 793d cabd deec 0abf
000000f0: df94 17bf 615a 143e 4130 9d3e 9e87 123d
00000100: 9411 f8bc 6212 b53e 6c87 a2bd d568 203d
00000110: 5781 86bf 4135 2cbf 36bf ca3e 8ef2 be3e
00000120: 28ba 29bf 6c38 90bf 497c 65be d2fe 713f
00000130: 153c 8c3e 9e9e 1a3e 783b 45bd 4efe 3cbf
00000140: 29af c83e 6c0f 1cbf 2ffb 69bf d0b5 e6be
00000150: 4a18 d8be d21b 5ebd 4867 85bc fc98 50bf
00000160: 345a bcbe e637 0fbe 55b8 233f b4d3 6c3d
00000170: 875c 7bbd eebc eabd ec2c 933e 1ccd 82be
00000180: 1049 bbbe cf0a ad3d 76bd b33d fe4f ca3e
00000190: c0b6 3b3f af06 cabe e6fa 973d 7c7d 01bf
000001a0: d7e6 883c c12b 343f 2fc7 41be 3748 85bf
000001b0: 2732 d7be b8f5 8e3e 1687 5fbf 1d8e 88be
000001c0: e09b ae3e df5f b53e 80bc 0dbf df99 60bf
000001d0: 3bf6 ef3d c7e5 813f ff66 233e 068d 45bf
000001e0: d0c6 87bf b94e 3bbf 1d67 fe3e 4842 38be
000001f0: cea0 82bf 7548 b3be f96c 2cbe 31c3 a13d
00000200: 383c bcbd 1699 eabd 62cf fabb ea51 9dbe
00000210: 5cc9 76be 6649 f63d 707b 4c3c 5797 273f
00000220: e0a7 0a3f ec2a c0be be14 26bf 7bef 0ebf
00000230: c2f3 d83e 227a 333f e1c4 cbbe 3a0e c2be
00000240: 59d7 8d3d 0954 503f bc73 b5be 150f bcbe
00000250: 8f49 90bc a291 e0bd eab9 123f 551b 043f
00000260: d38e 6bbe 330e 5f3f 8e91 843f 4956 1f3e
00000270: 0ff9 4c3d ae19 9e3e 21f0 223e 2f2a 12be
00000280: ca13 153e a2da 4bbe d6b8 213e a443 cf3e
00000290: f88f ce3d 938f 4cbe e8c9 c03d b3de 9a3d
000002a0: 427e 103f 84cc d83e bd0d 8dbe 75e9 7d3d
000002b0: b19b b2be c73c 373e 009a 573e e55a 143f
000002c0: 2310 60bd 048d 7a3e 5b72 c13e 09c3 153f
000002d0: cae3 a2be 7dfa 90be a032 36be 66a1 0a3e
000002e0: d2b6 e43e 78bf 843e edd9 fdbd 940b 6ebd
000002f0: 7829 213d 17d0 dbbd 8e30 113f 7a9d b23c
00000300: 5348 48be 5f71 e8bd efdb 3abe db33 9d3e
00000310: 228f d5be edb7 9ebe 4e8c 9ebc 305f c23d
00000320: c982 d23e f1fe d2bd 3b94 a5bd a8ff 203e
00000330: e256 c93e 212a 0f3f 217e 693d 603f 4fbd
00000340: 62af 76be c608 0d3f e791 95bd b75a 49bf
00000350: 1251 2abf 1b06 2fbf 1396 43bf 267b d3bc
00000360: 78da 883e 4d74 343f 1a80 553e 5a65 e5be
00000370: c629 36bf bf40 31be 9221 023e c24c e2be
00000380: 2a6b babe b6eb c63d 6a71 773c 65f3 9cbd
00000390: 5d9f f43e 7531 b2be 911f cbbe 8c42 60be
000003a0: 4d28 94be 54fa 3a3f 13e6 173f b5cf 5cbe
000003b0: 890f 9fbe 9968 ffbd 48cf cb3e 5c2f e43e
000003c0: fb60 12bf bf54 1fbf d834 96be 1bf3 ddbe
000003d0: 1c53 01bf bfad 02be 3823 adbe 04e1 343e
000003e0: b4c6 f6be a09b 8ebf eabd acbc 2899 44bf
000003f0: 16e0 6bbe 0a84 59bc 5ecf f83c 46a0 0ebf
0.40630257 -0.5724369 -0.578477 0.57364905 0.6696559 0.11843562 -0.13494317 -0.94222265
-0.34720895 -0.13837449 -0.0064460277 -0.24261373 -0.47824198 -0.47077227 -0.026877273 0.06657509
0.42922735 -0.024159297 0.27932203 1.0100533 0.6095935 0.050073456 -0.32866597 0.65043736
0.68043077 0.11351973 0.4814067 0.25753683 0.52926564 0.05398933 0.34629697 0.50525695
0.5131904 0.47386414 -0.29211223 -0.24841496 0.68796575 0.012283418 0.09014768 -0.35991865
-0.7807995 -0.03432898 0.2873032 0.20765924 -0.2485075 0.016633146 0.031213012 0.106459826
-0.13110979 -0.13524143 0.13763191 0.20273031 -0.29285708 -0.7829599 -0.19196658 -0.697659
-0.2853082 0.38544524 -0.09875006 -0.5426768 -0.59211534 0.14487602 0.30700877 0.035773866
-0.03028182 0.35365587 -0.07935986 0.039162476 -1.0508221 -0.6726876 0.39599007 0.3729443
-0.66299677 -1.1267219 -0.22410692 0.9452945 0.2738959 0.1509957 -0.048152417 -0.7382554
0.39196137 -0.6096103 -0.913989 -0.45060587 -0.4220603 -0.05422575 -0.0162846 -0.81483436
-0.3678757 -0.13986167 0.63953143 0.057819083 -0.061367538 -0.11461817 0.2874521 -0.2554711
-0.3657918 0.08449327 0.08776371 0.39514154 0.7332573 -0.39458224 0.07420902 -0.505821
0.016711636 0.70379263 -0.18923639 -1.0412663 -0.4203045 0.27921844 -0.873155 -0.26670924
0.34103298 0.35424706 -0.55365753 -0.8773479 0.117168866 1.0148247 0.15957259 -0.7716831
-1.0607548 -0.73166996 0.49688044 -0.17994034 -1.0205324 -0.35016218 -0.16838445 0.07898558
-0.09191173 -0.1145498 -0.0076541165 -0.30726558 -0.2410025 0.120257184 0.012480602 0.654653
0.54162407 -0.37532747 -0.648754 -0.5583417 0.42373472 0.70108235 -0.39798644 -0.3790148
0.0692584 0.8137823 -0.3543986 -0.36730257 -0.0176132 -0.10965277 0.5731493 0.51604205
-0.23003702 0.8713104 1.035692 0.15560259 0.05004221 0.30878967 0.15911914 -0.14273904
0.1455833 -0.1990762 0.15793166 0.40481293 0.100860536 -0.19976644 0.094135106 0.07562008
0.56442654 0.42343533 -0.27549544 0.06199022 -0.34884408 0.17894278 0.2105484 0.57951194
-0.05470289 0.24467856 0.3778256 0.58500725 -0.31814414 -0.28316107 -0.1779275 0.13538131
0.4467073 0.2592733 -0.12395082 -0.05811651 0.03934619 -0.10733049 0.56714714 0.021803606
-0.1955884 -0.11349749 -0.1824796 0.30703625 -0.41710764 -0.309997 -0.019354012 0.09490812
0.41115406 -0.103025325 -0.08084913 0.15722525 0.393241 0.5592366 0.05700505 -0.05059755
-0.2409034 0.5509151 -0.07303219 -0.78654045 -0.66529953 -0.6836869 -0.7640087 -0.025815558
0.26729178 0.7048996 0.20849648 -0.44803888 -0.7115749 -0.17309855 0.12708119 -0.44199187
-0.36409885 0.09712927 0.015102724 -0.07663611 0.47777835 -0.34803358 -0.3967252 -0.21900386
-0.28936997 0.7303822 0.5933544 -0.21563609 -0.3106654 -0.12471122 0.3980658 0.44567382
-0.5717923 -0.6223869 -0.29337192 -0.43349537 -0.5051744 -0.12761591 -0.33815932 0.17663962
-0.48198473 -1.1141243 -0.021086652 -0.767962 -0.23034701 -0.0132761095 0.030372318 -0.5571331

fc1.bias f4 [300]
00000000: ec76 903e e371 3dbe c194 f43d 745d 79bd
00000010: 29ee 30bb fd50 583f fe25 7fbd f7a3 a13d
00000020: 4114 50be ef07 15be 5fd2 71bf 2c0d 6fbf
00000030: 2e55 3dbd 8f57 313f ce48 0dbe e526 a1be
00000040: d774 fdbe de80 36bf 38a8 56be 1655 ecbd
00000050: 9170 bc3e ab6e 74bf e053 f4be 1e86 d0be
00000060: 1bcb 77bd 5b5c 8cbe d49a 063f 929e 133f
00000070: 0074 713d ff91 2fbf c23a b0bd 7813 1c3f
00000080: e089 0b3f 3450 06bd 2b68 963e 8c20 73be
00000090: d7f7 b4be 8793 adbf 40b1 2bbf 473a 27bf
000000a0: 7ef8 92be 1b20 9abf 9885 42bd 5eef 47be
000000b0: 82c3 f5be bb6e 6a3f e83c 9a3e 9e37 ffbd
000000c0: a863 9ebf 3aed f2bd 7d2e 4cbe f3d4 abbd
000000d0: 42b2 8abe d7db fcbe 7c80 39bf 768a f33e
000000e0: aa25 6d3d 5631 44be 9362 103e 0b87 09be
000000f0: 1217 57be 7525 db3d d2f0 76be 82b3 8a3c
00000100: 4dc5 0c3f dcf5 5cbe 8070 9abe 8ffc e03e
00000110: c201 943f dbc0 513a e166 1cbf f8ee fe3c
00000120: e93f e6bd de44 8ebe 65e2 263d 614a 8a3e
00000130: 81c3 b2be b240 4cbf 7795 b8be b9c2 94be
00000140: 24ce 1f3e 2517 23bf 60af 8f3e 5f0d 52bf
00000150: c6a0 023f e7e6 d73e 2f0d d5be bbbe 31bf
00000160: a4b1 95be 3d58 a7bf b74a 81be 8f44 0cbd
00000170: 16ed f9be 1590 5cbd c71c 17bf a65c f1be
00000180: 45e0 99bd d422 3dbf bf26 afbd 1dbc 99bc
00000190: 66b8 d4be 3047 08bf 2f4e b5bd a172 923e
000001a0: 7229 303e d94c 8d3f 90ce 16bf e0b4 b7bc
000001b0: 4b65 80be 74d4 64be e8b4 ecbe b797 023e
000001c0: 8693 85bf 9075 95be 76e7 e0bd 2dab 5b3f
000001d0: 40d9 203f fb51 0d3f 7de3 94bd 6925 843f
000001e0: 5889 07bf 361f de3d f5a0 4bbf 7d46 5dbb
000001f0: 2d2b 213f ccf2 1dbe 08f7 0fbf 8730 27bf
00000200: 491a 033e f333 1c3f 4248 8ebe 5fb3 ddbe
00000210: 2ee7 373f fc89 87bd 8be7 82bd 2453 17bf
00000220: 1c1e a4bd f044 703e 0f8a 70be 78e4 9bbd
00000230: 387d 8abc f845 6cbe 54fb 8dbd c9aa 44bf
00000240: 3b59 24bf e970 04bf e7d0 ce3e 35aa 2cbf
00000250: 7ef0 5bbe ab5c 95bf d02e 90be f508 89be
00000260: c187 013f 679a ae3e dc77 9ebd 63f4 3abe
00000270: 012b e2be 54ca a9bd a996 cabe 7ad7 03be
00000280: 9915 803e b0da ce3e e472 bfbe 5a8f edbe
00000290: b504 60bf 1e9b 2fbf 7283 86bf dd0d a83e
000002a0: e7ab c33e 2df6 21bb 0d38 0fbf 5f4c 43bf
000002b0: 668d 2abf e70e 25bf 862e 81bd bd54 59be
000002c0: 02a2 c9be 7644 ddba 16df e73e 8569 ccbe
000002d0: 0af4 993e ec62 33bf 6af4 e5be 739e b43e
000002e0: cc73 19bf 6280 f13e 7f9c 23bf 91b2 963e
000002f0: be9d 5cbf 0d6f 2ebf b8a6 f1be 5555 92be
00000300: dad6 1fbd 8d9e 843f 43ee 083f b59a f6be
00000310: 4b47 a6bd cce1 d23e a8d1 89bf 7104 6cbf
00000320: 133f 86bd 3afd 61bf 4913 eb3c a718 1bbf
00000330: 5095 40bf aa30 133f 276a 78bc 0abf 6bbd
00000340: 8c25 d3be abc4 9abe e72c 8f3f e03e 26be
00000350: 0cf1 aabe 2b36 933e 8a8b 51bf 3c29 39bf
00000360: 860c 05bf d3c1 20bd 16cc 43bf 471b f8be
00000370: 8458 b5be 7f6e 463f 232d 31bf a151 ba3e
00000380: da44 a1bf e05e 2b3e 8be1 bf3f 0981 6c3d
00000390: cb49 2bbf dfe4 e9bd 8a41 20bf bbdb 11be
000003a0: d543 1a3f 6566 5fbf 03cc 093f a2cf e7be
000003b0: 8d09 c43e 6310 98ba 2e1f 163c b6b6 62bf
000003c0: 15b4 bbbe 34d1 e2be b46f 933d bfe8 fcbe
000003d0: 3c42 60bf 5031 86bd e81e b43d 3f35 5e3f
000003e0: fcd9 b0bf 1611 b9be bbda 2bbc b018 eb3c
000003f0: fe03 15bf 80b4 a5be a35c 73bf 2151 ee3e
0.2821573 -0.18500476 0.11942435 -0.06088014 -0.0026997423 0.8449858 -0.06229209 0.07892602
-0.20320226 -0.14553808 -0.94461626 -0.93379474 -0.04622381 0.6927423 -0.13797304 -0.31474987
-0.49503204 -0.71290386 -0.20962608 -0.11539666 0.3680463 -0.95481366 -0.47720242 -0.40727323
-0.06049643 -0.27414212 0.5258 0.57663834 0.058948517 -0.6858215 -0.08604957 0.60967207
0.54507256 -0.03279133 0.2937635 -0.23742884 -0.35345337 -1.3560647 -0.6706734 -0.653233
-0.2870521 -1.2041048 -0.047490686 -0.19524905 -0.48000723 0.9157521 0.30124593 -0.1246178
-1.2374163 -0.118616536 -0.19939609 -0.08390226 -0.27089125 -0.49386474 -0.72461677 0.47566575
0.057897247 -0.19159445 0.14100103 -0.13430421 -0.21004894 0.10700504 -0.24115303 0.0169313
0.5498856 -0.21578163 -0.30163956 0.43942687 1.1563036 0.0008001455 -0.6109448 0.031119809
-0.11242659 -0.27786916 0.04074325 0.27009872 -0.34914783 -0.7978622 -0.36051533 -0.29054812
0.1560598 -0.6370719 0.28063488 -0.8205165 0.5102657 0.42168352 -0.4161162 -0.69431657
-0.29237092 -1.3073803 -0.25252315 -0.03424507 -0.48813695 -0.053848345 -0.59028286 -0.47140998
-0.07513479 -0.7388127 -0.08552312 -0.018766457 -0.41546935 -0.53233624 -0.08852803 0.2860308
0.1720331 1.1039077 -0.5890894 -0.022425115 -0.2507728 -0.2234667 -0.4623177 0.12753187
-1.0435646 -0.29191256 -0.10981648 0.8580807 0.628315 0.5520322 -0.072699524 1.0323917
-0.52943945 0.10845797 -0.79542476 -0.0033763938 0.62956506 -0.15424651 -0.56236315 -0.6530842
0.12802996 0.6101677 -0.27789503 -0.43300912 0.7183713 -0.06618115 -0.063918196 -0.5911124
-0.080135554 0.23463798 -0.23490165 -0.07611936 -0.016905412 -0.23073566 -0.06932703 -0.768231
-0.64198655 -0.5173479 0.40393755 -0.67447215 -0.21478459 -1.1668905 -0.28160715 -0.26764646
0.5059777 0.34102175 -0.07737705 -0.18257289 -0.44173434 -0.08290544 -0.3956807 -0.12875167
0.25016478 0.4040122 -0.37392342 -0.4639843 -0.8750718 -0.68596065 -1.0508864 0.32823077
0.3821709 -0.0024713383 -0.559449 -0.7628841 -0.66622007 -0.64475864 -0.06307702 -0.21223731
-0.39381415 -0.0016881365 0.4528739 -0.39924255 0.30069 -0.7007282 -0.44913036 0.35277137
-0.59942317 0.4716826 -0.6391067 0.2943311 -0.86178195 -0.681382 -0.4719751 -0.28580728
-0.039023258 1.0360886 0.5348856 -0.48164907 -0.08119067 0.41187894 -1.0767107 -0.9219428
-0.06554999 -0.8827702 0.02869572 -0.6058449 -0.7522783 0.5749613 -0.015162027 -0.057555236
-0.41239583 -0.3022817 1.1185578 -0.16234922 -0.3338703 0.28752264 -0.81853545 -0.72328544
-0.51972234 -0.039247345 -0.76483285 -0.4845831 -0.35419095 0.77512354 -0.692095 0.36390403
-1.2599137 0.1673541 1.4990705 0.057740245 -0.66909474 -0.11420607 -0.62600005 -0.14243977
0.60259753 -0.87265617 0.5382692 -0.452756 0.38288537 -0.0011601563 0.009162707 -0.88560045
-0.3666083 -0.44300234 0.0719904 -0.4939632 -0.87601066 -0.06552374 0.087949574 0.868
-1.3816524 -0.36145848 -0.010489161 0.028698295 -0.58209217 -0.32364273 -0.9506323 0.4654627

fc2.weight f4 [124, 300]
00000000: fb02 75be 4d40 313e d924 a6be c8d9 84bd
00000010: 53f8 49be 4b3f 6bbf 1bd8 a13d 72f9 ac3d
00000020: 6dcf b2be b3fd 22be 1bd2 fcbe 8f4f 5dbe
00000030: 7716 423e 1db4 26be b6c2 b1bd 3541 aebd
00000040: 126d 56be ba5a 783d 1d8a 2bbd c64d 683d
00000050: 0e4f 05be 4b42 9abc 9308 01bf 6380 b5bd
00000060: 7d33 85be d269 7cbd ad2d 51be edec fd3d
00000070: 61ec 013d a2d1 a73e 162f a9bc 5fdb 913d
00000080: 4adb e83a 8549 a1be 1067 bdbe cc73 4dbe
00000090: 2b04 11bd ec65 513e 166b 063d 9fac 233f
000000a0: 09ed 62bd 7f31 7abe 44fa d4bc 0659 da3d
000000b0: 77b8 eabe 0803 3b3e 80a7 f5be 495f b6bd
000000c0: 4f44 313e cd0c be3d e7d5 21be e43d 8ebc
000000d0: ed98 6abf f1eb 07bf f313 e73e 9452 a53c
000000e0: 9b2c 303c 22a2 883d 548d 7dbe a24a 6b3f
000000f0: ec38 da3d 827c 1e3e 647e 4f3e 9040 0f3f
00000100: 0e88 98be 3d96 09bf fb02 aebd 4560 b8bd
00000110: 8789 debe 971a 4d3e 0a3b a1be 05bc 11bf
00000120: 5f59 0a3d 542b b0be 8761 70bd a665 103d
00000130: f74c 123d f996 debe 609c a2be 7122 18be
00000140: 090f 0dbf c483 313b bfd4 5e3e 2ae2 d7be
00000150: 700d ef3e 2920 94bd 4647 573b b11f 76bd
00000160: faab e33e b674 c53e 1141 553e 0ed2 3ebe
00000170: d21d d3be 34b9 9bbd c5a0 e2be 3b3a cbbe
00000180: c6b5 6bbd a47f b53e ce92 083e e293 1e3e
00000190: 2314 c53d 8d92 99be dd02 22bc 1877 b83d
000001a0: 8665 13bf e378 26bf 0d23 aa3c 5e5b 193f
000001b0: 0d37 aa3e 58e8 2d3d 14df e9be 380a a33e
000001c0: 0bfd e13e 1446 ba3e 681a d2bb cf7f 613e
000001d0: aaf4 df3e 67f9 8dbb 98f2 533d 40a6 463c
000001e0: b569 cb3e 4c1d 9dba 912e 2cbe da38 6ebd
000001f0: ae68 14bf 712c b7bd 8e45 833e 751a 84be
00000200: 2f69 f23d 6ee8 58be 998a 8d3e 3078 08be
00000210: d8fa e1bd 583a 98be 86a2 3b3a 91ee 1ebe
00000220: 6a79 9fbe a02a 58be aee4 bb3e ccc1 12bf
00000230: 193d 9fbc 8387 a23e a64d 2ebe 116f 3fbd
00000240: 2396 d33d 6459 fdbd 9614 3d3d b94e b73e
00000250: 2cc0 1abe da74 ce3e 8aad df3d 9e12 083f
00000260: 85cf 5b3e 8838 1d3f bd2d 6c3d cb0a 3abd
00000270: 2a00 16be 0398 7b3d 681b 11bf cbdd 60bf
00000280: e6a1 40bc 49a3 6ebd c682 20be e5ea 583e
00000290: 97b3 ef3d a26e e4be 28cd 7dbc 2ae7 16bf
000002a0: 2069 c7bd c883 01bf 9545 02bf 1fc8 32be
000002b0: 568b 09bf 40d6 40bf 0d11 35bd f763 9ebe
000002c0: 2746 c1be 2d2e b1be c01b d33c b9bd 163e
000002d0: 0a15 6e3e d2b1 12bf f6ca 423f 48a8 853d
000002e0: 6465 4fbe 2359 6fbd 2921 3ebe dfa8 82bd
000002f0: 7f9b 833e 6827 41be 62f4 143f ff96 823e
00000300: 8483 c3bd 5246 1bbf 69a3 103e 3fbd 8cbe
00000310: b707 20bd 2257 0bbe fec6 6fbc 979c 233c
00000320: 7e41 9a3c cbdd 4ebe 7a6e bbbe 4571 a33e
00000330: 6aef ecbe 6a2f 7cbe 1d71 8dbe 39bd 46bd
00000340: 49ce 23be b5a7 723e 74a6 93be f648 e33c
00000350: 8c0c 243e 206b d1bd 82bb e53d f532 863d
00000360: f154 073c 7bd2 5fbe ddcf a73d 50b4 95bd
00000370: db93 7cbd c885 ff3d 3263 06be fecc 06be
00000380: bae8 7f3b 0bd6 23bf 8616 a4bf 074a 59bf
00000390: f150 853e ede3 64be 9bf2 f33d 035e 473e
000003a0: 9c3f b9be 78d3 06bf 478a 16bf 9c2f 643e
000003b0: c943 bebe 032a f6be d8c8 213e 445a 213e
000003c0: f8c1 263f b12c e73e 902d 283e 33b6 73be
000003d0: ec13 a73e 2050 20be 2779 43bf 3be2 a73d
000003e0: 3bc6 a5be e201 07bf 0330 4dbd dc17 243f
000003f0: 76d1 4c3e 9cf7 98be de8c 953e 43bc e0bd
-0.23926918 0.17309685 -0.32449988 -0.06486851 -0.19723634 -0.9189345 0.07902547 0.084460154
-0.34923878 -0.15917091 -0.49379048 -0.2161238 0.18953882 -0.16279645 -0.08679716 -0.08508531
-0.20940045 0.0606334 -0.041879762 0.056714796 -0.13018438 -0.01883044 -0.5040371 -0.088623784
-0.26015845 -0.061624356 -0.2042758 0.12398706 0.03171957 0.32777125 -0.020652335 0.0712192
0.0017765549 -0.31501403 -0.36992693 -0.20063704 -0.035404366 0.20449036 0.03281697 0.63935274
-0.055401836 -0.24432944 -0.025998242 0.10661511 -0.4584386 0.18262875 -0.47979355 -0.08904893
0.17311214 0.09279785 -0.15804254 -0.017363496 -0.91639596 -0.53094393 0.45132408 0.020180978
0.010752822 0.066715494 -0.24760944 0.91910756 0.10655388 0.15477183 0.20263058 0.5595789
-0.297913 -0.5374487 -0.08496662 -0.09002737 -0.434643 0.20029674 -0.31490356 -0.5692752
0.033776637 -0.34408057 -0.05868676 0.03525319 0.03571793 -0.43474558 -0.3175993 -0.14856888
-0.55101067 0.0027086595 0.21760844 -0.42164737 0.4668994 -0.072326966 0.0032848879 -0.060088817
0.44467145 0.38565606 0.20825602 -0.18634817 -0.4123369 -0.07603684 -0.44263282 -0.39692864
-0.0575464 0.35448945 0.13337252 0.154861 0.096229814 -0.29994622 -0.009888378 0.0900709
-0.5757679 -0.6502821 0.020768667 0.5990504 0.33245125 0.04245791 -0.45678008 0.31843734
0.4413837 0.3638159 -0.0064118393 0.22021411 0.4374135 -0.0043327096 0.051745027 0.012124598
0.39729086 -0.001198688 -0.16814639 -0.058159687 -0.5797223 -0.089440234 0.25639004 -0.25801435
0.118364684 -0.21182415 0.27644804 -0.13327098 -0.11034173 -0.29732013 0.0007157702 -0.15520693
-0.3114732 -0.2111001 0.36697906 -0.5732696 -0.019438313 0.31744012 -0.17021808 -0.04673678
0.10331371 -0.123705655 0.04616221 0.35802248 -0.1511237 0.40323526 0.10921772 0.5315341
0.21465881 0.61414385 0.057660807 -0.04542045 -0.146485 0.061424267 -0.56682444 -0.8783843
-0.01175735 -0.05826119 -0.15674886 0.21183355 0.11704176 -0.44615656 -0.015490808 -0.5894648
-0.09736848 -0.5059171 -0.50887424 -0.17459153 -0.53728235 -0.7532692 -0.044205714 -0.30935642
-0.37748834 -0.34605542 0.025770068 0.14720811 0.23250213 -0.5730258 0.76090944 0.06526238
-0.20253521 -0.058434617 -0.18567337 -0.06379866 0.25704572 -0.18862689 0.581854 0.25505826
-0.09546569 -0.60654175 0.14124836 -0.27488133 -0.039069857 -0.13607457 -0.014634846 0.009986064
0.018830057 -0.20201795 -0.36607724 0.31922355 -0.46276408 -0.24627462 -0.2762536 -0.0485203
-0.1599666 0.23696788 -0.2883793 0.027744751 0.16020411 -0.102255106 0.11217405 0.06552688
0.008259998 -0.21857636 0.08193944 -0.073097825 -0.061664443 0.124766886 -0.13123778 -0.13164136
0.0039048628 -0.6399848 -1.2819374 -0.8487858 0.26038316 -0.22352572 0.11911508 0.19469456
-0.36181343 -0.52666426 -0.58804744 0.22283787 -0.3716109 -0.48078927 0.15799272 0.1575709
0.6513972 0.45151284 0.1642363 -0.23799972 0.32632387 -0.15655565 -0.7635674 0.08197447
-0.323778 -0.5273725 -0.050094616 0.64098907 0.20001778 -0.2987641 0.29209036 -0.10973408

fc2.bias f4 [124]
00000000: 77b6 b5bd 162b f2be 1719 acbf 64dd 58bf
00000010: 1b9e 043f 5d65 803e fe65 083e 14e3 a6be
00000020: 70a7 6cbf e33a 38bf 6e89 1bbf 602d 4bbe
00000030: 1dd4 d0be 081a 41be 1b78 67bf c86d 05bc
00000040: d9f7 c43e 6f2b 6fbf a650 84bf e134 03bf
00000050: 917a f13e 1792 e4bd c508 7f3f 30dd 383e
00000060: 76a3 333e a6c0 143e 18d3 39bf 5874 0cbf
00000070: 5ddd 50bf 58df c53e 4787 2b3e c7fe dcbd
00000080: f94c 02bf 876e 85bf 5c71 c73d 6f47 e8bd
00000090: 086f abbe f89e eebe dfeb 4e3e bf1b f7be
000000a0: 74e0 d7bf 3d14 27be 2d01 bfbe e951 8bbf
000000b0: 05d4 3fbf 5063 34be d167 653e 2d65 f8be
000000c0: 1c78 24bf 0564 38bd 0823 34be 9180 47bf
000000d0: 7a0b e7bf 10ad f6be df12 52be 5573 7ebf
000000e0: 022a 53bf 446d e0bd b0cc c5bd 9cd7 64be
000000f0: dff7 e4bc 68c6 3fbf d0b6 81bf 2569 97bd
00000100: 9d5f 9abf ec30 a6be d7bb 33bd fa75 9fbd
00000110: 2145 d1be 8224 853f fb5b 88bf 254d 07bd
00000120: 4122 56bf b235 32bf 9ff8 74be 450d 853f
00000130: db15 2ebf ce24 cdbe 8810 93bf 0082 32bf
00000140: 4c3d 16bf 1dee 41bf 64c0 c6bf 37a4 9cbf
00000150: 1a29 4abf 1d8e dc3e f6ee 5abf 2415 a3be
00000160: b114 1cbe c5e6 25bf 651c 56bf 293f a2bd
00000170: 24cc d0bf b118 8a3e 1b9e 4ebd b385 a73d
00000180: f7f5 25bd c0b7 cbbe 9f47 07bf 22ce b43e
00000190: 52e4 4dbf fe24 fbbe bb36 84bf 55b7 e9be
000001a0: cda9 c5be 6475 ab3f 90d6 31bf 05a7 c2be
000001b0: 7c80 ecbe 5f01 9e3d 17f9 7ebd 3c00 58bf
000001c0: 3e7c 83be 6946 42be 0c38 44be ec18 b5bd
000001d0: c3d1 c03e f8b9 17be a6b7 b1bd eb7d 6dbf
000001e0: 397e 163f 9372 3dbb b8c6 06bf 612a c1bf
-0.08872693 -0.47298497 -1.3445157 -0.84712815 0.5180375 0.25077334 0.13320157 -0.32595122
-0.9244299 -0.71964854 -0.60756576 -0.19841528 -0.4078683 -0.18857586 -0.9041764 -0.00814385
0.38470343 -0.9342565 -1.0337112 -0.5125256 0.47163823 -0.11160677 0.99622756 0.18053126
0.17542824 0.14526615 -0.7258773 -0.54865026 -0.81587774 0.3864696 0.16750823 -0.107907824
-0.508987 -1.0424355 0.097384185 -0.1134175 -0.33483148 -0.4660566 0.20207165 -0.48263356
-1.6865373 -0.16316314 -0.37305585 -1.0884372 -0.7493289 -0.1761601 0.22402884 -0.4851469
-0.6424577 -0.04501726 -0.17591488 -0.7793055 -1.8050377 -0.4817891 -0.20515011 -0.9939473
-0.82485974 -0.10958341 -0.09658182 -0.22347873 -0.027950225 -0.7491212 -1.0133915 -0.073931016
-1.2060429 -0.324592 -0.04388031 -0.07786174 -0.40873054 1.0401766 -1.065307 -0.033032555
-0.8364602 -0.6961318 -0.23922966 1.0394675 -0.680021 -0.40067142 -1.148942 -0.69729614
-0.5868728 -0.7575396 -1.5527463 -1.2237614 -0.78968966 0.43077174 -0.85520875 -0.31852067
-0.15242268 -0.6480525 -0.83637077 -0.07922203 -1.6312299 0.26971963 -0.05044375 0.08179798
-0.040517773 -0.39788628 -0.5284366 0.35313517 -0.80426514 -0.4905166 -1.0329202 -0.45647684
-0.3860611 1.33952 -0.6946802 -0.3801805 -0.46191776 0.07715105 -0.06224927 -0.8437536
-0.25680727 -0.18972172 -0.19162005 -0.08842644 0.37660035 -0.14817035 -0.08677606 -0.9277026
0.5878635 -0.0028907403 -0.5264697 -1.5091058

fc3.weight f4 [38, 124]
00000000: c130 e3be f391 16bd fcbf 55be 049e a33d
00000010: 61bb 13bd 10a0 ecbe 33fd b2be c9b0 d93e
00000020: 49bd b9bd e7d3 963b 7de5 c3be cccd 2cbf
00000030: 36a5 33bd 6356 05bf c9e1 9cbe fae7 81be
00000040: ff5f 87be 52b1 8d3e 0797 a43e a500 e6be
00000050: 6d18 2abf 8a6a 57bd 6f65 863e be65 75be
00000060: 49aa 96be 6240 4dbf 9c14 07bf 9052 fdbe
00000070: eaa4 c5be 3863 88be 0dc3 6e3e 9245 9ebe
00000080: 9a4c b0bd 1bec 5b3e 3ad5 a4be f2d3 53bd
00000090: 4c39 adbe ba72 82be ef46 f2bc 779a 11be
000000a0: 0f4b 8abd c6d1 aebe 6d65 dcbe d346 a73e
000000b0: d48f b4be de34 a4be ad43 47bf c565 0abc
000000c0: 199a bebd f5f6 79be 7bdc afbe bf64 933e
000000d0: fd66 d9be 9165 8f3d 1e24 babe 517b 94be
000000e0: a4d3 30be cf5c a03d 49e0 3abd 1f43 8abe
000000f0: dfc4 5cbd bcd6 05bf 00e3 d9bd cd8c e9bc
00000100: f5c2 34be 5f04 f7be 2c10 6bbd 6fc3 0ebd
00000110: 195c 3dbf 694c 8dbf 42dc f539 e8d4 09bf
00000120: e5e1 26bf 50a3 69be 0845 12bf 479e a0be
00000130: 024f d5be 488a 2fbf d7d1 dbbd 3077 743e
00000140: a282 f9bd a901 dfbe 5bbb 38bf c918 9dbe
00000150: 3e49 30be 4385 833e 1542 8dbe 6b5c 89be
00000160: 781b dbbd cb62 8dbe c32c 06be 22ea 55bd
00000170: 2897 07bf 5436 c1be 8ada 71bd 2dc1 1fbf
00000180: 9d99 81bd 9f0f b2be 995c f1bd 699b 1d3e
00000190: 8017 25bc 2a1f f6be bb63 14bf 05f2 ba3e
000001a0: beba fbbe c66b 87bf c203 ad3d 8bf5 3f3d
000001b0: 8782 0fbf 542c 753e a687 8abe 8302 d83e
000001c0: 9efa 2dbf 8e7b 1b3c 3a31 173d 0e35 23bd
000001d0: 20c2 7f3e 15e4 0abe ce9f a3ba fc79 ebbe
000001e0: 6264 efbe 8b0b d7be dbd6 dbbe 06a7 01bf
000001f0: a656 1cbf 72cd d63d a5a3 743e 5fc9 053e
00000200: 2502 abbd c226 8f3e 2594 09bf 1365 a5be
00000210: ea48 f4bd e724 ff3d e99f 73be 29d3 01bf
00000220: 925f e7bd 95f6 23be b222 bebd 71de fb3e
00000230: 051b 83be 9c35 bd3c f9ca 65bd e559 61be
00000240: f030 ecbe 9f54 c13c 7814 8f3e deab 233e
00000250: 51e6 14be f01e 50bf 55f2 93be 694b cc3d
00000260: ee38 363e bebf ee3d c658 46be a3da c6bd
00000270: 80f5 2abe 9fb9 68be 3de9 01bf 5c12 f73b
00000280: 2ca6 39be 42d1 6e3e f4af abbe 66db 78bd
00000290: 2cd2 26be 2122 dcbd e295 11bf 65b3 99bd
000002a0: 9dac 9f3c 164e e6be 1922 42bf c31b 19be
000002b0: 66fc 6ebe 84a9 fbbe 4e42 58be 15b4 583d
000002c0: 4047 6b3d 82ad 06be 7ca9 1b3d eeab 05be
000002d0: 5798 f9be 6822 6fbd be34 853d 05ad a8be
000002e0: 19c2 e1bc 539b 48be 2f38 293d 4a13 5bbc
000002f0: ed11 0bbe 3bf3 babc 401f a93d e60f 433b
00000300: 739b 49bd cbd7 70bf 147e aa3c 7bbd 46bd
00000310: e5ec c1be 99f8 01be eb27 11bf 3878 d0bb
00000320: b4d4 94be 00b0 2abf 99dd 50be 3dc8 1cbd
00000330: 019c 1fbe b913 34be 3924 96be ff47 df3d
00000340: b68a b6be 5be8 98be 6e98 a8bd d0fd 2fbe
00000350: 2d9b 3f3e 58d9 94be 86b0 3dbe 01fc 9bbd
00000360: c891 a0be ae27 53bf 2e30 28bc 5338 d7be
00000370: e93a 8e3d 01eb 223e 56a6 17b9 b4e3 edbb
00000380: c4c2 d2be d5eb 90be ce47 babd bd61 73be
00000390: 1834 ffbe 6a26 7cbf 1155 71be 6f18 dfbd
000003a0: 8f11 d4bd 7a36 90be 3f32 02be c2af e9bc
000003b0: e52d 11bf b182 d03e 7963 1b3d 6586 19bc
000003c0: f7e8 b73e 9dc9 76be 8c01 46bd 059b a9be
000003d0: 2588 163e a310 d3be 308c d7bd 5ee9 84be
000003e0: 1ead 12be 1d96 34be bd15 4e3e 4ed9 efbc
000003f0: 73c0 2bbe ff94 bdbe e827 cfbe c338 bfbd
-0.44373134 -0.03676028 -0.20874017 0.079891235 -0.03606737 -0.46215868 -0.349588 0.4251769
-0.090693064 0.0046028974 -0.38261023 -0.6750152 -0.04385873 -0.5208494 -0.3064101 -0.25372297
-0.26440427 0.27674347 0.32146475 -0.44922367 -0.6644352 -0.052591838 0.26249263 -0.23964593
-0.29426792 -0.80176365 -0.5276582 -0.49477053 -0.38602382 -0.26638198 0.23316593 -0.30912453
-0.086083606 0.21476786 -0.3219393 -0.0517158 -0.33832777 -0.25478154 -0.02957484 -0.1421908
-0.067525975 -0.3414442 -0.43046132 0.32671222 -0.35265982 -0.32071584 -0.7783764 -0.008447115
-0.093067355 -0.24410613 -0.343479 0.287878 -0.42461386 0.07001794 -0.3635568 -0.29000333
-0.17268234 0.07830202 -0.04562405 -0.27004334 -0.05389869 -0.52280784 -0.10639 -0.028509522
-0.17652495 -0.48245522 -0.05738847 -0.03485435 -0.73968655 -1.1038944 0.00046894146 -0.53840494
-0.6518844 -0.22816205 -0.57136583 -0.31370756 -0.4166184 -0.68570375 -0.10733383 0.23873591
-0.12183119 -0.43555954 -0.7216088 -0.30682972 -0.1721544 0.25687608 -0.2758948 -0.26828322
-0.106985986 -0.27614436 -0.13103013 -0.05222524 -0.5296502 -0.37736762 -0.059046306 -0.6240414
-0.063281275 -0.34777543 -0.1178524 0.15391316 -0.010076404 -0.4807065 -0.57964677 0.3651277
-0.4916591 -1.0579765 0.08447982 0.046865027 -0.56058544 0.23942691 -0.27056617 0.42189416
-0.67960536 0.009489907 0.03691218 -0.03984552 0.24976397 -0.13563569 -0.0012483539 -0.45991504
-0.46756274 -0.42000994 -0.4293736 -0.5064548 -0.61069715 0.10488404 0.2389055 0.13065098
-0.083500184 0.27959257 -0.53741676 -0.32303676 -0.1192797 0.124582104 -0.2379147 -0.5071283
-0.112975255 -0.16012032 -0.09283961 0.49193147 -0.25606552 0.023096852 -0.056101773 -0.22006948
-0.46131086 0.02359992 0.27945304 0.15983531 -0.14540984 -0.81297207 -0.28895822 0.09975321
0.17795154 0.11657666 -0.19369802 -0.097096704 -0.16695213 -0.22727059 -0.5074652 0.0075400304
-0.18129796 0.23322013 -0.3353268 -0.06075611 -0.16291112 -0.10748697 -0.5686933 -0.0750492
0.019491488 -0.4498145 -0.7583328 -0.14951997 -0.2333847 -0.49152768 -0.21119043 0.052906115
0.057440996 -0.13152125 0.03800343 -0.13053867 -0.4874904 -0.05838242 0.065042004 -0.32944503
-0.027558373 -0.19590501 0.041313346 -0.013371298 -0.13581057 -0.02282106 0.082579136 0.0029764115
-0.049220514 -0.94079274 0.020812072 -0.048520546 -0.3787605 -0.12692489 -0.56701535 -0.0063619874
-0.2906853 -0.66674805 -0.20397033 -0.0382769 -0.15586855 -0.17585649 -0.2932451 0.10902404
-0.35652703 -0.29864773 -0.08232199 -0.17186666 0.18711539 -0.2907207 -0.1852437 -0.07616425
-0.31361222 -0.8248242 -0.010265393 -0.4203516 0.0694483 0.1590996 -0.00014462447 -0.0072598103
-0.4116422 -0.28304926 -0.09095727 -0.23767753 -0.49844432 -0.98496115 -0.23567607 -0.10893332
-0.103549115 -0.28166562 -0.1271448 -0.02852619 -0.56710654 0.4072471 0.03793666 -0.009370421
0.35919926 -0.24100347 -0.04834132 -0.33126083 0.14700373 -0.4122363 -0.105247855 -0.25959295
-0.14323851 -0.17635389 0.2012548 -0.029278424 -0.16772632 -0.37027737 -0.40460134 -0.09336998

fc3.bias f4 [38]
00000000: d141 22bf 8e36 c13f a200 683f 86d6 8ebf
00000010: 5388 7fbf 8ed6 c93e f9e8 e2bd 63ae 5bbf
00000020: a99d 153f b1f4 283e 5fc1 083f 51f4 1abe
00000030: e4e6 a9bf 7654 933f 5b41 50bc af2a d0bd
00000040: ac55 423f 247d 14be 79ca 81be 6f90 10be
00000050: 1b17 1d3d 9d0c eebe 7182 1bbb 4739 b33e
00000060: 89ba 983f be32 97bf 4d63 40be 74e7 e9be
00000070: 7f0c 9cbf 5376 babd 4ed6 debe 7497 343f
00000080: 738a 4ebf 0151 1bbf f607 863e 96a1 f5be
00000090: 8be4 803f 1f22 c4be
-0.6338168 1.5094774 0.90625966 -1.1159217 -0.9981739 0.39421505 -0.11079592 -0.8581297
0.58443695 0.16499592 0.5342006 -0.15132262 -1.3273587 1.151015 -0.012710894 -0.10164391
0.75911975 -0.14500862 -0.25349787 -0.14117597 0.038352113 -0.46493998 -0.0023728872 0.35004637
1.1931926 -1.181236 -0.1878788 -0.45684397 -1.2191314 -0.091046 -0.43522877 0.705436
-0.80680007 -0.6067048 0.2617795 -0.47974843 1.0069746 -0.38307282
